checkpoint.pth (torch, 229227 bytes, 12 tensors)

conv1.weight f4 [6, 1, 3, 3]
00000000: dbf6 1a3e fe14 97be 381d 853e 9345 85be
00000010: 46bf 90be 25a8 93be beaa 963c ca12 19bf
00000020: d94c e1be 9f3b a03d 12b7 31bd 99d3 21bf
00000030: 3118 413f 0300 163f 539d 0abe 011b 233e
00000040: 55b1 cd3e 39ab 62bd 2c5e 803c fe07 59bf
00000050: 5758 543d a224 3c3d c528 f8be 50ca 733e
00000060: aafa 7d3e 82e6 2cbe c6ee 273f 2390 14bf
00000070: 90a3 903d 9a1c 093f b7b2 63be f96c abbe
00000080: ea4e babd 65ce 8cbe 763c 923d 47a1 b43e
00000090: 63bf 1d3f f2ae 643e 9c03 ec3e b05b f73e
000000a0: b047 bdbe 428e dcbe 0d11 5ebc e3d4 02bf
000000b0: 4055 bbbe d0f3 773f 1be2 e6be 2f01 493e
000000c0: a1a2 983e 448c a9bf bde1 5fbf faf1 363f
000000d0: 8ffe eabe b4f3 933e
0.1513323 -0.29508203 0.25998855 -0.26029643 -0.2827093 -0.28839222 0.018391963 -0.59794295
-0.44003943 0.07823872 -0.04338748 -0.632135 0.7542754 0.5859377 -0.13536577 0.1592827
0.40174356 -0.055339072 0.015669905 -0.8477782 0.05184206 0.045933373 -0.48468605 0.23807645
0.24802652 -0.16884807 0.65598714 -0.58032435 0.07062447 0.5355927 -0.22236143 -0.33481577
-0.09097083 -0.27501217 0.07140438 0.35279295 0.6162016 0.22332361 0.46096504 0.4831214
-0.36968756 -0.43077284 -0.01355387 -0.5110609 -0.36588478 0.96856403 -0.4509438 0.19629358
0.29811576 -1.3245931 -0.87453824 0.71462977 -0.45897338 0.28896868

conv1.bias f4 [6]
00000000: 5154 f6b9 2237 8cbd 5ff6 dd3d 4123 f7bc
00000010: af54 f13d 50c4 403f
-0.00046983597 -0.06846453 0.10838007 -0.030168178 0.1178373 0.7529955

conv2.weight f4 [6, 6, 3, 3]
00000000: e556 893e 4cca 8c3e df57 e73d a87c 1d3b
00000010: eb5f c23e 3cd7 723e d267 63be 0a74 853e
00000020: d172 f23e 4d14 ce3e 6456 283e 2064 b5bb
00000030: 1491 053e da3e 3cbe e277 cbbe 1767 953e
00000040: c547 9fbe c10f 04be c112 20be f33f 8abe
00000050: 36b1 f2bc 4a99 84bd 6d68 92bd a2e0 ba3d
00000060: 12de 1ebe 6547 453d 0bbb d53e 4e72 d2bd
00000070: 8866 583c 51f3 bb3e ca2a b0bd 53e1 8cbe
00000080: 2256 883e 7c61 543d 0186 3bbe 604d fc3d
00000090: d189 2d3e 277f 2c3e 99a4 283e 4f30 6d3c
000000a0: 9359 b33d 8734 5ebd 3a6e 473e 482e 1ebe
000000b0: 86b8 a2be bd01 e53d 8559 b03d e712 803e
000000c0: e833 1cbe 407b 573e 04b8 013f 9d1e e93c
000000d0: 93dc c23e 438e 703e 72fd e4bd 0315 863d
000000e0: 8b2f b53d f5f7 f5bd 5eee 5e3e 0972 2abc
000000f0: 84d7 4ebe dad0 f93d d4ad dd3c f3a3 703d
00000100: 1306 20bf cf27 83be b080 b43e bf99 c4be
00000110: 8f91 09bd 45b3 023f 65f1 09be 9acf a53e
00000120: f6e7 503e d2ad a93e c124 253e 3393 773e
00000130: 6ac7 ac3d 3faf ed3d df3b 453e 4739 f43d
00000140: e09a c03d 8a02 c0bd 89c7 c73d f452 433e
00000150: b97a 2bbe 8f7c 573d 676a 643d 7687 fbbd
00000160: 2ab0 cb3d 0d4f 833d 47fc 163e 2e30 863d
00000170: 304c aabd 2ca8 0e3d b91d 3cbe d1fb 65bd
00000180: 3819 9e3d 1711 01be 8135 c3bd 2bf6 0e3f
00000190: af85 c43e caa3 11be 3985 c13e 3967 343c
000001a0: 1632 b2be 7d9a e63d f91d 23be ef39 f8be
000001b0: c43f 36bd 0451 60be 1a6a 253e 9699 6f3d
000001c0: 1fba 52bd d00e 0e3d 85bb 003d fb41 0d3d
000001d0: 3537 473c f343 4e3c 33ce bd3e 8531 273f
000001e0: 0a6e c2bd 373f 8b3d 58e1 1c3e f6df cdbe
000001f0: fb59 bfbe 8511 8e3d 138d 163d d891 8abd
00000200: 39d1 80bd 6421 37be c1c5 03be f34f 33bd
00000210: 97df 9cbd a8db eabd 9adb ddbd 72cb 173e
00000220: cf8d aabd 1c05 07be 5b15 973e 68e2 bb3c
00000230: 8c4e 83bc d853 4a3e 5a39 29be 0fee 903c
00000240: f368 6ebc f34f 5ebe ba58 853c 7351 02be
00000250: 6287 22bd ba53 133e 2935 293d 4812 693e
00000260: 09fa ccbd 4189 69be b657 65be 3958 6bbe
00000270: 5849 c2bd e7b7 b83d c23e aebd 7cff 353e
00000280: 6867 903d 76df 08bd 1149 713d 2229 a63d
00000290: 6a0b b03e 9250 a9bd 7065 c0be d326 943d
000002a0: 1ac0 14bd 66ad 8fbe b5c4 5c3c 3d5c e93c
000002b0: 72e0 cd3d 0af1 823e f63d 453e 2882 673e
000002c0: a8eb d13e e7f3 92be 50f3 863e e2af 0d3f
000002d0: a17a ad3c 8808 893d 0326 a4bd 9700 30be
000002e0: b73a 0f3e cbdb 97bc 6905 bfbd b8e2 acbd
000002f0: 3aa2 5dbe e83d 6cbd c33c aa3c 78e4 0cbe
00000300: 1b00 6c3d 5b3a f0bc 9a38 a13d 0e20 533e
00000310: c500 bebd 1626 70bd 7b1a 56be c009 e4bd
00000320: 2a3e 4cbe 078d 44be b2bb 01bc 4f71 77be
00000330: 68c7 5b3d 64f8 9cbd 1ac2 cbbe bed1 163d
00000340: 6374 d73e 1762 833e d1f1 dcbd 059f 4b3c
00000350: 8e6f 58be 1208 81be b550 24be 8ad2 22be
00000360: 8bab f0bd d4ac 9d3d 8faf 803c 2048 11be
00000370: 8a85 3c3d 542b 00bd 0aed 973d 65e3 d0bc
00000380: 6b65 9fbd 006b 2a3e 996e 753e 1e6c 833e
00000390: 0322 873e 7795 5b3e b70f 46bd bdae 973d
000003a0: 3996 5bbd 71a4 8bbe bccc b2bb 1c31 f7bd
000003b0: 3ef0 063d bae8 1abd 5604 ca3d abef 283e
000003c0: 0675 8d3d 5bec 6cbb 6c9c e83d 6ed2 88bd
000003d0: 3d89 dc3c 33ba 303e 7408 b8bd d6e6 07be
000003e0: 9bd3 f53d 6c98 b5bd 35fe dfbd 9c2e cf3d
000003f0: 1543 41be 826c 5c3e b7e3 d93d 35a2 dcbd
0.26824108 0.2749809 0.11296057 0.00240306 0.37963805 0.23714918 -0.22207573 0.26065093
0.47353223 0.40249863 0.16439205 -0.0055356175 0.13043624 -0.18383351 -0.397399 0.29180214
-0.31109443 -0.12896635 -0.15632154 -0.27001914 -0.029625516 -0.0647455 -0.07148824 0.091248766
-0.155144 0.04816379 0.41744265 -0.10275708 0.013208039 0.36709073 -0.08601911 -0.2751566
0.26628214 0.05185078 -0.18312837 0.123194456 0.16947104 0.1684538 0.16469039 0.01447685
0.08757319 -0.054249313 0.19475642 -0.15447342 -0.31781405 0.11181972 0.086108245 0.2501442
-0.15254176 0.2104311 0.5067141 0.02845698 0.3805891 0.23491769 -0.11181153 0.065469764
0.08846959 -0.12010185 0.21770617 -0.010403165 -0.201994 0.121980384 0.027060427 0.058750104
-0.6250927 -0.2561631 0.3525443 -0.3839855 -0.03358608 0.51054794 -0.13470991 0.3238495
0.20400986 0.33140427 0.16127302 0.24177246 0.08436473 0.11605691 0.1926112 0.11924987
0.0940454 -0.09375484 0.09754855 0.19074613 -0.16746034 0.052609023 0.055765536 -0.122816965
0.0994571 0.06411562 0.14744674 0.06552158 -0.08315313 0.03482835 -0.18370713 -0.056148354
0.07719654 -0.12604176 -0.095316894 0.5584437 0.38383242 -0.14222637 0.37796953 0.011010938
-0.34803838 0.11259935 -0.15929402 -0.484817 -0.044494405 -0.21905905 0.16153756 0.05849608
-0.05144703 0.034682095 0.031428833 0.034486752 0.0121591585 0.012589443 0.3707138 0.65309936
-0.094936445 0.06799167 0.15320337 -0.4020993 -0.37373337 0.06936935 0.036755633 -0.06766099
-0.06289906 -0.17883831 -0.12868406 -0.043777417 -0.07659834 -0.11467677 -0.10832901 0.14823702
-0.08327829 -0.13185543 0.2950848 0.022935107 -0.016028665 0.19758546 -0.16525784 0.01769164
-0.014551389 -0.21710186 0.01627766 -0.12726383 -0.039679892 0.14387408 0.041310463 0.2276088
-0.10008628 -0.22806264 -0.2239674 -0.22982873 -0.094866455 0.090194516 -0.08508064 0.17773241
0.07050973 -0.033416234 0.058907572 0.08113314 0.34383708 -0.08267321 -0.3757739 0.07233968
-0.036316015 -0.2806198 0.013474633 0.028486365 0.10052575 0.25574523 0.19261917 0.22608244
0.41000104 -0.28701708 0.26357508 0.553465 0.021176638 0.0669108 -0.08015063 -0.17187725
0.13987242 -0.018537423 -0.09327204 -0.08441681 -0.21643916 -0.057676226 0.020780927 -0.13759029
0.057617288 -0.029324701 0.07872124 0.20617697 -0.092774905 -0.05863007 -0.20908539 -0.11134672
-0.19945589 -0.19194423 -0.007918285 -0.24164318 0.053656965 -0.07664564 -0.39796525 0.03682112
0.42080984 0.25660774 -0.1078831 0.01242805 -0.21136305 -0.2520147 -0.16046412 -0.15900627
-0.11751469 0.0769898 0.015708713 -0.1418767 0.04602579 -0.03129132 0.074182585 -0.025499055
-0.07783016 0.1664238 0.23967971 0.25668424 0.26393136 0.21443735 -0.04835483 0.074063756
-0.05361006 -0.27273896 -0.005456535 -0.12069914 0.032943957 -0.0378196 0.09864108 0.16497676
0.06907086 -0.003615162 0.1135796 -0.06680761 0.026920909 0.1725853 -0.08985987 -0.1327165
0.12003251 -0.08866963 -0.10937158 0.10116312 -0.18873246 0.21525767 0.10639136 -0.10773126

conv2.bias f4 [6]
00000000: e22e 8fbd 52bb 7d3e 79c4 b63e 63ad b83e
00000010: afe9 3cbe 98bb 0dbe
-0.06991364 0.24778488 0.35696772 0.36069784 -0.18448518 -0.13841093

conv3.weight f4 [16, 6, 3, 3]
00000000: e48c 833e 4174 543f b1f8 43be ed0a 47be
00000010: 582f aabd 37c5 12bf 226d 14bf ba93 1dbf
00000020: 020b f43d 2710 623e d760 2e3f 4329 113f
00000030: 2101 04be f41b ef3d f4f4 8cbe aeab adbe
00000040: 5d36 21bf 9e8b a4be c5db 0cbe 0818 3abe
00000050: 98b9 7dbe 2bba abbc d330 d83b bf86 5abb
00000060: 8310 c83d 8dce 9b3e aa5e 1f3e c818 90be
00000070: 7b2e 86be 8693 9e3d 1918 79bd 4aa1 c23d
00000080: 6a4a b13d 2571 203e 2414 013e 5697 00bd
00000090: 09c9 8f3d c28e 47be cc88 d3bd 5b37 d9bc
000000a0: 6ad5 6e3d 0a59 5b3e b89d 34be 68e3 b53d
000000b0: 4133 083e 6a75 3cbd d42a b6bd be13 043e
000000c0: 4e29 e43c b319 96bd 57f8 d3bd 2b87 efbd
000000d0: dfff 103d 22f9 bebd ff33 643e 6663 c63c
000000e0: 87f3 ddbe 9817 8b3d c8c4 e0be cc65 c2be
000000f0: b026 29be 68e5 14bf 71af 8cbe c3ff e03e
00000100: 69a4 733e 5971 08bf 1cc5 1b3f 99c1 11be
00000110: bc25 fcbe 0eb4 993e 1728 b8be 0740 f1be
00000120: ee10 e9bb ae5a 953b 6ddf 3abd 44fd 3c3d
00000130: 9aea 213e 600d 88bd 5ad4 283d 90ae 3d3e
00000140: 1b8d 6cbe 5cb5 50be 3ef5 97bd c5b6 69bd
00000150: 6ec6 19be 2b2d 563e 71d4 09be a55b 813e
00000160: cc7d bb3e 8049 a1bb d531 3dbe 1209 3bbd
00000170: 7e2b 163d 003d b4bd 7360 493d 4544 2fbe
00000180: 89ea c7bd 85b9 df3c 7eaf 91bd 7ef8 6e3d
00000190: 74a4 b73d ef84 b0bd 3434 81bd 40d7 ee3c
000001a0: 2967 b73d 5191 a33c dc0f 09be c044 4b3d
000001b0: 1511 063f f37c a3be 95c1 00bf da04 123f
000001c0: cef0 10be 4db2 ccbe 93ea 1b3e d017 b5bd
000001d0: 4600 32bf ba4f b63d 27b2 7bbe dde1 e1be
000001e0: a83c 673d ab05 c03d 4bad cbbe 7ae6 95bd
000001f0: 7f02 8c3e 88b0 b5be 631c cbbd 7bb1 21be
00000200: c2d2 803c 08d7 28be ecb8 96bd 9a04 2a3e
00000210: 6abd 29bd 97b2 0c3e cd60 2e3e 93d3 16be
00000220: 7454 55bd d013 7a3d 7c7c 3cbe 4b45 5d3c
00000230: 8bdc c93d e514 99bc f614 59bd 8227 b83e
00000240: 1c07 4ebe 1d40 5cbd 9c88 31be 98c6 adbc
00000250: de50 0fbe 2c16 6f3d c0df c3ba 0547 77be
00000260: a2e8 17bd 5d1b a73d c2ce ee3d 9cda 783c
00000270: 4634 db3d acf3 2e3d 33bf bcbd 76e0 aebd
00000280: b231 e3bd 9fc3 02be da8c 243e f890 113a
00000290: cf23 aebd 2c9c b1be d498 1d3c 4e74 343e
000002a0: 10e3 96be b7f8 6bbe 2960 acbd bfeb f03e
000002b0: 6dae b53d 1c4a 6f3c ec45 91be 2735 3fbd
000002c0: 83e4 cd3c 4dd4 55be c6d2 1fbd f187 993d
000002d0: d7af 49be 5122 8ebe 36cf 60be e02a 8dbd
000002e0: 3d3f cbbd b27a 853c f07b 56bc 3e8b ad3c
000002f0: e0bc 353e 9020 2cbd f88d f9bd 8284 93be
00000300: 430c 86bd d05e 343e bf1d 43bd 8ca3 353e
00000310: fbd0 df3e 895d c53e d44d 84bd 07ea 15be
00000320: a56a 35be bfaa 4dbd 2f93 a4bd 7b4e ccbd
00000330: 6123 b03d ffde 52bd 626c 523e f481 8dbd
00000340: 0d5f 88bc a83b 36bd dd43 3b3b e935 fdbd
00000350: 05f5 863a 6d1f b03d f76e dfbd 5543 8d3c
00000360: 5421 04bf 50cb 01bf 9edd d13d 70f0 10bf
00000370: aab3 e2be d883 0e3f 55e0 7bbe 62d3 d43e
00000380: b90f 713f 1245 b1be 44d8 3dbf ac4a 04bf
00000390: c26b 80be 4252 c0be eab8 a9bd 528c d7be
000003a0: f0d1 4abe a092 a03e b435 33be ecd7 813c
000003b0: 3e7a 48bd b816 1fbe f7ec 9ebd b56c d83d
000003c0: 7259 a93d b056 d0bb 3434 97bc a844 d9bc
000003d0: 4018 b83c 708b 633e b36c 943e eced e93c
000003e0: d6c7 96ba 4465 1ebe d159 2dbf bcbb fcbe
000003f0: a221 bcbc 36e5 833c 24a9 973e a881 8a3c
0.2569343 0.8298989 -0.19137837 -0.19437762 -0.08309811 -0.57332176 -0.57979023 -0.6155354
0.11916162 0.22076474 0.68116516 0.56703585 -0.12891056 0.116752535 -0.27530634 -0.33920044
-0.62973577 -0.3213777 -0.1375571 -0.1817323 -0.2477783 -0.020962795 0.006597617 -0.0033344475
0.09768774 0.30431023 0.15563455 -0.28143907 -0.26207337 0.077429816 -0.060813997 0.0950342
0.086567715 0.15668161 0.1260534 -0.031394325 0.07020766 -0.19488052 -0.10328826 -0.026515653
0.058308996 0.21420684 -0.1763829 0.08881265 0.13300802 -0.046010412 -0.088948876 0.12898156
0.027851727 -0.073291205 -0.103501014 -0.11695703 0.035400268 -0.09324862 0.2228546 0.024217319
-0.4334986 0.067916095 -0.43900132 -0.3796829 -0.16518664 -0.58162546 -0.274776 0.4394513
0.23793186 -0.53297955 0.6084764 -0.14234008 -0.4924754 0.30020183 -0.35968086 -0.4711916
-0.007112614 0.004557929 -0.04562323 0.04613997 0.1581215 -0.06643176 0.04121814 0.18523622
-0.23100702 -0.20381683 -0.07419823 -0.05705907 -0.15017101 0.20915668 -0.13459946 0.25265232
0.36619413 -0.004922092 -0.1847604 -0.045662947 0.03666257 -0.08800697 0.049164247 -0.17115887
-0.09761531 0.027310142 -0.071135506 0.05834245 0.08966914 -0.08619105 -0.06308785 0.029155374
0.08955223 0.019966753 -0.13384956 0.049626112 0.52369815 -0.31931266 -0.5029538 0.5703865
-0.1415436 -0.39979783 0.15226202 -0.088424325 -0.6953167 0.089019254 -0.24579678 -0.44117633
0.05645433 0.09376081 -0.3978065 -0.073193505 0.27345654 -0.35486245 -0.09917524 -0.1579036
0.015725497 -0.16488278 -0.0735949 0.16603318 -0.041440405 0.13740002 0.17029114 -0.14729147
-0.052082494 0.06105405 -0.18406862 0.01350529 0.09856518 -0.018686721 -0.052998506 0.35967642
-0.201199 -0.05377208 -0.17337269 -0.021212861 -0.13995692 0.058370754 -0.0014944002 -0.24148186
-0.03708709 0.08159516 0.1166053 0.015188839 0.1070333 0.042712852 -0.09216156 -0.08538906
-0.11093463 -0.12769936 0.16069356 0.0005552913 -0.08502924 -0.34689462 0.009618957 0.17622492
-0.2947011 -0.23044096 -0.084167786 0.4705486 0.0887116 0.014605071 -0.2837366 -0.04668155
0.025133377 -0.20881768 -0.03901937 0.07496632 -0.19695984 -0.27760556 -0.21954045 -0.068929434
-0.09924171 0.016293857 -0.013091072 0.02118456 0.17747831 -0.04202324 -0.121852815 -0.28812033
-0.065453075 0.17614293 -0.04763579 0.1773817 0.43714127 0.38547924 -0.06460157 -0.14640056
-0.17716463 -0.050211664 -0.080358855 -0.099759065 0.08600498 -0.051482197 0.20549157 -0.06909552
-0.016646886 -0.044490486 0.0028574385 -0.12363798 0.001029641 0.08599744 -0.10909837 0.01724402
-0.51613355 -0.50700855 0.10247348 -0.5661688 -0.44277698 0.5566993 -0.24597295 0.41567522
0.94164616 -0.3462301 -0.7415812 -0.5167644 -0.25082213 -0.37562758 -0.08287223 -0.42099243
-0.19806647 0.31361866 -0.17500955 0.01585003 -0.048944704 -0.1553601 -0.07760041 0.10567609
0.082690135 -0.00635799 -0.01845751 -0.026521996 0.0224725 0.2222116 0.2898918 0.028555833
-0.0011503648 -0.15468317 -0.67715174 -0.4936198 -0.022965256 0.016100507 0.29621232 0.016907528

conv3.bias f4 [16]
00000000: d155 e7b9 ddbc 223e d443 d73d c0eb 2fbd
00000010: df1a c5be c990 09be e122 19be cb00 023c
00000020: e2c8 ea3d bb50 88be a0c3 4dbd 756d 15be
00000030: 66e7 44be 129b 1cbe a982 d6bd 4be8 583c
-0.00044123692 0.15892358 0.10510984 -0.042949438 -0.38497064 -0.13434137 -0.14954711 0.007934759
0.114640966 -0.26624092 -0.05023539 -0.14592536 -0.19228896 -0.1529353 -0.1047414 0.013238977

fc1.weight f4 [120, 400]
00000000: 4c1c 7f3c 8c9e b7bd e048 b0bd 8b14 8cbd
00000010: 6f5c 07be 99dc 033d 7bef 943c 3791 1ebd
00000020: 697b 17bb b040 7ebe 3b86 6cbd 4ebd ff3d
00000030: f758 a5bd 2ecb 15bd 5bf9 a5bd e03a c3bb
00000040: 4702 6abd 4c26 8e3d 5d76 643d 2299 d4bd
00000050: 7a34 37bd 0646 d83b fbb8 b43d c60a b23d
00000060: a2f9 30bd d754 8f3d 351b 5a3d 3f6f 4dbd
00000070: efc3 b93c 5754 a03d 5db8 623d 965c c83c
00000080: 85e3 3ebc feaf 2cbd 7975 073a 7d4d 553d
00000090: 5ba6 db3c f194 4b3d ef99 41be 7d80 453c
000000a0: a8b9 eb3c 0491 153d c4ff 803c cd02 00be
000000b0: d2b0 9abd 37b4 dcbd 495d 90ba 61e4 18be
000000c0: d6fd 26be 8dfd 903d 2887 193e 2ca1 a23c
000000d0: b03e bebd 4801 be3d a061 533e 8944 823b
000000e0: 62fe 12ba 6645 4bbd 7cfc 08bd 0577 b33d
000000f0: d3ce 9aba 9432 e0bc c20f 233c 6cf0 97be
00000100: 26d2 a73d f81c 4cbd 2ca3 143d 4ddb babd
00000110: d047 29be 9dc1 b8bc b1d5 0abe 39b7 bb3d
00000120: 4ade 81bd 7e5b 2cbe 907c 4f3e 8800 273c
00000130: 8e72 01bb a781 8ebd 48c5 85bd c291 afbd
00000140: 1b6d 28bd 3a74 99bd 4a07 843d cfb2 803c
00000150: 7446 3dbd 518e ccbc 06d5 b2bc 8ab8 8c3d
00000160: 5e4b b83d 3b92 533c 800f 4bbc 05bd ba3b
00000170: 6d27 4cbd 7876 7fbd 9609 2a3c 6750 0a3d
00000180: cd9e 533d 32b6 f2bc 4900 0bbc 5899 3abd
00000190: 7880 fabd 3b67 17bd 05eb 313e 8ffb 6f3e
000001a0: 580b 8abb 554a 1ebe 4dbc fe3c c0f9 1d3e
000001b0: cf61 10bc 56da c1bd d97c 51be e894 80bb
000001c0: 02de 2dbd 676a 93bc 3bf5 05be 9d5b ecbd
000001d0: c226 373d 8f1f 5abd 2744 fbbc 3e7a fcbc
000001e0: dc4a 963e 46ed 833d 9a63 5ebe 5133 53bd
000001f0: 94a7 933d d613 933c adaa cfbd edbc e03c
00000200: 82c9 9dbd 86d5 a83d 19e6 c93d d315 c03d
00000210: c97c b7bc d7f9 eabb 32e9 85be 1e1c 37be
00000220: 1246 5fbd 73fe 94bd 5c49 123e d5e4 153d
00000230: 17f3 36be 5a8e 643d 3456 adba b6ae 133e
00000240: 2c6f 993e 0ab0 36be 82e3 7d3e 5893 563e
00000250: 4d9f 34bd c7f9 27bd 786e 3b3d fcfe 1cbd
00000260: b6bd 013b 0ebd c2bd 97db 04bd 9f79 29bd
00000270: 43b7 fdbc d89a 53bd 73c9 a7bd cf43 8e3d
00000280: ec24 28bb 8ca9 80bd c6ca 1c3d 19f9 66bd
00000290: 2590 983d 23fd 9ebc 9c32 a1bd 02c4 cc3d
000002a0: 5139 05bc c9ad 253d 7c1f 2bbd 63df a8bc
000002b0: f04b 333d e8b6 c03c 7cfa 5c3d 7d2b 23bd
000002c0: 60f6 8f3c 8112 c9bd 8af2 84be 091c bebd
000002d0: 4174 22bd cc42 36bd d597 95bd de62 1abe
000002e0: ad0c fb3d 2b3a cd3c 9f6d 0f3d ce60 69bd
000002f0: cd45 3abe bcf9 b9bc 6eaa 71bd 64e7 f53c
00000300: a2a8 a63d e405 1bbc 4fdb 0b3c 10f1 543e
00000310: 16e4 9f3e 56f6 263e c7a5 163e f976 a43d
00000320: 3f27 63bc a089 4cbc c9bf dcbc 3b79 14bc
00000330: 8939 47be e1ae b43c 91d4 cc3a 9a4d 40bd
00000340: 8d5d d1bc 58d7 34be dfd0 afbc 7410 8b3d
00000350: c71f b4bc cb42 00be 57e3 473c 68fc c2bb
00000360: fa12 8b3c 473b 413c 5bcc 34bd 974f 413d
00000370: 105d 023d 0cd9 65bb 9085 983d accc 4e3c
00000380: 9ed2 9fbc d2f5 303d 8ada f0bb 5052 08be
00000390: b34f 0d3e d5fd 1f3e c0b2 7bbc 8707 ea3d
000003a0: 02c3 85bd 0bed 813d f839 013e f441 d8bd
000003b0: 271f eebc d43d b2bb 6f4b 4abb b373 0a3e
000003c0: 0dd6 12be f045 0f3d 280e a53d b918 b43d
000003d0: fb64 163e db12 4bbd de50 98bc ec3d 6bbd
000003e0: 44a5 f13d 191f 873e 6a36 943d b1ad 6d3d
000003f0: 7d61 a4bd 62be 463d d14a 01bd 515e 82bc
0.015570711 -0.08965787 -0.0860765 -0.06839856 -0.13218854 0.0321928 0.0181806 -0.038712706
-0.002311433 -0.24829364 -0.0577452 0.12487279 -0.08073609 -0.03657072 -0.081042014 -0.005957946
-0.057131078 0.06940898 0.055776943 -0.1038077 -0.04472778 0.0066001443 0.08824345 0.08693461
-0.04320682 0.06998604 0.053248603 -0.05015492 0.022676436 0.078285865 0.055351604 0.02445821
-0.011650925 -0.042160027 0.0005167346 0.05207585 0.026812723 0.04970259 -0.18906377 0.01205456
0.028775051 0.03651525 0.015746959 -0.12501068 -0.07553257 -0.10776561 -0.0011014129 -0.1493087
-0.16307768 0.07079611 0.14992964 0.019852243 -0.092893004 0.09277588 0.2064271 0.003975455
-0.0005607364 -0.04962673 -0.033443913 0.087629355 -0.0011810906 -0.027367868 0.009952487 -0.29675615
0.081943795 -0.049832314 0.036288425 -0.091238596 -0.165313 -0.02255326 -0.1355808 0.09165806
-0.063412264 -0.16831776 0.2026236 0.010192998 -0.0019752118 -0.06958323 -0.06531769 -0.08572723
-0.041119676 -0.074928716 0.06446703 0.015710263 -0.046209767 -0.024970206 -0.021830093 0.068711355
0.0899875 0.012913282 -0.012393832 0.0056988024 -0.049842287 -0.06236884 0.010378262 0.033768084
0.051665116 -0.029627893 -0.008483955 -0.045556396 -0.12231535 -0.036963683 0.17374809 0.23435806
-0.004212778 -0.15458043 0.031095648 0.15427303 -0.008812382 -0.094654724 -0.20457782 -0.003924001
-0.04244805 -0.017995073 -0.13081829 -0.11540911 0.044714697 -0.053252753 -0.030672146 -0.030820008
0.29353988 0.06441741 -0.21717682 -0.05156261 0.07209697 0.017953794 -0.10139976 0.027433837
-0.0770445 0.08243851 0.09858341 0.09379163 -0.02239837 -0.0071708965 -0.26154476 -0.1788182
-0.054510184 -0.07275095 0.14285797 0.036595184 -0.17866169 0.05579982 -0.0013224543 0.14422116
0.2996763 -0.17840591 0.24793819 0.20954645 -0.044097234 -0.04100969 0.045759648 -0.03832911
0.0019796914 -0.095087156 -0.03243598 -0.041375753 -0.030971175 -0.051661342 -0.0819272 0.06946527
-0.0025656773 -0.062823385 0.038279317 -0.0563899 0.074493684 -0.019407814 -0.07870981 0.09998323
-0.008131341 0.040448938 -0.041778073 -0.020614332 0.04377359 0.023524716 0.053949818 -0.039836396
0.017573535 -0.098179825 -0.25966293 -0.09282691 -0.03966165 -0.044497296 -0.0730435 -0.15076777
0.12258277 0.02505215 0.035016652 -0.056977086 -0.1819069 -0.02270209 -0.059000425 0.030017562
0.08137633 -0.009461854 0.008536174 0.20795083 0.31228703 0.16304907 0.14711677 0.08030505
-0.0138643375 -0.012483984 -0.026946919 -0.009062107 -0.19455542 0.022056045 0.0015627315 -0.046949007
-0.025557304 -0.17660272 -0.021461902 0.067902476 -0.021987809 -0.1252548 0.012200198 -0.0059504993
0.016976822 0.011793918 -0.0441402 0.047195043 0.031827033 -0.0035071997 0.0744735 0.01262204
-0.01950961 0.043203183 -0.0073502706 -0.1331265 0.13799934 0.15624173 -0.015362442 0.11427217
-0.065313354 0.063440405 0.1261977 -0.105594546 -0.029067589 -0.0054394994 -0.0030867716 0.13520698
-0.14339466 0.034978807 0.08059341 0.08793778 0.14686958 -0.04957853 -0.018593248 -0.0574321
0.117991 0.26390913 0.07236941 0.058026973 -0.08026407 0.048521407 -0.03156549 -0.015914114

fc1.bias f4 [120]
00000000: 3aff b93d 2980 463d 92c2 703d c24a b4bd
00000010: ad52 2c3d b656 3bbb be46 5dbd 455d 19bc
00000020: 7e61 15bd c66d 8ebd c6c7 0ebc 21c3 a03d
00000030: 9ca9 f1bc 7af1 2bbc 59f9 f03c e291 66bd
00000040: c791 cdbc bd0f 4c3d fcea 87bc 7ac7 09bc
00000050: b18f 65bc 9536 053c c670 5cbd d55c 703d
00000060: 17ea 2b3c 1b06 dbbc 7b6f 573d 44be 37bd
00000070: 0041 7e3a e0a9 e93c ed2f 2f3d c81a ffbc
00000080: 7e5c b6bc 1648 03bc 3b42 4cbc 6ade 2c3d
00000090: d376 44bd 2e9c 823d 9710 983d 99f6 b03d
000000a0: 554d 3b3d 2d93 6c3d 0373 d9bc a3a9 b2bd
000000b0: 93a7 ae3d 8e31 6cbd caca 1e3d e9b2 7dbc
000000c0: 6388 c1bc e7ea 0b3b 5648 3c3d a88d aa3d
000000d0: 888f 15bd f832 483c ca5a 443d 2bc1 96bd
000000e0: 1ba7 1c3d 8845 c83c 38c5 e7bc 069d 613c
000000f0: 45e1 1e3c 06ea b8bc 3b3b 763c 3d24 723d
00000100: eab2 ef3d 278e 1aba 7ed3 bcbc 0518 78bc
00000110: a4b6 30bd c92e 953c 4d9a 233d 876d 62bd
00000120: 31c1 9a3d c958 623d ddc7 1cbc 3501 7cbd
00000130: eb5c 9d3d cc0d f8bc d58c ab3c 1bb2 093d
00000140: 07bc 2ebd 61d6 9d3c 9938 beb9 442d e93b
00000150: 4325 b13c a21e 2dbd afae f53d 65e9 303d
00000160: bfd0 3b3d d17e e23c c514 6cbc 7b8f e73b
00000170: a21d 8a3c 3323 ac3d 2bf3 64bd f9ed d03b
00000180: 719f f5bd e0ef 3abd 86f0 a0bd a70f e13b
00000190: 8187 9d3a bbc8 373d af05 b3bc 852a 173d
000001a0: 2669 86bd ba9d 06bc 058a 6f3c d25e 6d3c
000001b0: 1ae1 523b d874 483b 2b61 9abc 71c4 f13a
000001c0: d911 53bd 2fdc 8a3d 7d03 cb3d 6f33 2cbd
000001d0: 5a66 6bbc 3798 803d cea7 173d 7afd 7ebc
0.09081884 0.048462067 0.058779307 -0.088033214 0.042071033 -0.002858562 -0.054022543 -0.009360616
-0.03646993 -0.06954531 -0.008714622 0.07849718 -0.029499821 -0.010494584 0.029415773 -0.05629147
-0.025093926 0.049819697 -0.016591541 -0.008409375 -0.0140113095 0.008130689 -0.053818487 0.05868228
0.010492823 -0.02673631 0.05259655 -0.044859186 0.0009699017 0.028523386 0.042770315 -0.0311407
-0.0222609 -0.008012792 -0.012466962 0.042204298 -0.047964882 0.06377445 0.07425039 0.08640785
0.045728046 0.057757545 -0.0265441 -0.08723762 0.08528056 -0.057664447 0.038767613 -0.01548455
-0.023624605 0.002134973 0.045967422 0.083278 -0.036513835 0.012219183 0.047938146 -0.073610626
0.0382453 0.024447218 -0.028292283 0.013770347 0.009697263 -0.022572529 0.01502877 0.05911659
0.11704047 -0.0005895816 -0.023050066 -0.015142445 -0.04314293 0.018210785 0.039942075 -0.055280235
0.075563796 0.055260453 -0.0095691355 -0.06152459 0.07683738 -0.030280016 0.020941177 0.03361712
-0.042659786 0.019267263 -0.00036281793 0.007115992 0.021624213 -0.04226554 0.11996209 0.043191332
0.045853373 0.027648361 -0.014409249 0.0070666648 0.016859833 0.08405151 -0.055895966 0.006376025
-0.11993302 -0.04563892 -0.07858376 0.006868321 0.0012018533 0.044869166 -0.021853296 0.036905784
-0.06563024 -0.008216316 0.014620309 0.014487939 0.0032177628 0.0030587222 -0.018845161 0.0018445385
-0.051530693 0.06780278 0.09912775 -0.04204124 -0.014367664 0.06279033 0.037025265 -0.015563363

fc2.weight f4 [48, 120]
00000000: a0be 393e cb2b 463e 520e 133e 08ea 463e
00000010: 6b04 abbd 541b fe3d fb76 283d c68b 70bc
00000020: c854 4b3d d732 a93e 87eb 5dbd fffb a4bd
00000030: 6b26 0abe d16a a33e f3b5 993e 64c2 d13d
00000040: 23aa 74be 7fe0 a03d 97da 093d fb57 fb3d
00000050: 0fb3 b2bd 7a34 97bd b6d8 13be 8ab9 afbd
00000060: e859 0c3e f6c1 143d 3f3c 4abe 5590 4dbe
00000070: 9d90 3f3e 2158 313e 27ae 213d 9201 523e
00000080: d04b 19be 8a26 83be c239 babd b459 9f3d
00000090: 06f1 88bd 1ca8 62bc fba3 17be b79b bcbc
000000a0: f872 7cbd 569f 323c 9c6b efbd 58e6 53be
000000b0: 4511 e7bc 31ec 9abd 82c5 c23e 6951 82be
000000c0: 45a7 a3bd f2a9 8b3e a9d2 3abe 6c93 3a3c
000000d0: 9a94 49bc 581c 87bd 3d8e 3abd c2a0 e8bc
000000e0: 1a0e 163e 005c 3b3e d4b0 91bc 05e7 8f3e
000000f0: 4ad9 203e 9d5d 88be 822a 6bbd 629c e2bd
00000100: 939a cb3e 552e b23d eb9e f0bc 03b8 09be
00000110: 3a97 433d 81cb 9c3e 6788 82be 2785 4a3d
00000120: 5ee3 d83d ecb4 1dbd 1ef8 bfbd c737 c23d
00000130: 4815 81bd 8002 113e 3790 0b3e 5af1 39bd
00000140: f09e d0bb d40e 9ebd fe56 c4bd f3e2 36be
00000150: 9a8c 7d3e cf0c dbbd 39fc 78bd 1ccb 393e
00000160: b5c9 eabd f4c6 ef3d efb3 693d 2df1 8d3e
00000170: bc13 bf3a 7f8a b1be 6e20 01be 3192 753d
00000180: 9630 053c 164d 18be 00b9 a0bd dfd4 86bd
00000190: 54ae 943d 0400 6dbe 12d1 49bb da9e 7b3c
000001a0: 3be1 5e3c 43a0 183b 8047 67be 46d5 883d
000001b0: f2c2 023e 51f6 e9bd 2c4a 57b9 e4ef 25be
000001c0: f86e 9bbd 9da3 1dbe 25bc cdbd aa5f 56bd
000001d0: 5f86 fcbd 47a7 0c3e 6bd8 533e f416 a5bd
000001e0: db73 3fbd c0da 653d 7c82 8b3e bf8a 643d
000001f0: 4d83 06be b062 4a3e 4a25 29bc af9a 423e
00000200: 97d0 303d 104e 19be 13cd c7bd 5de4 fabd
00000210: 2f16 883d dc3b cbbd a008 68be 18fd 50be
00000220: b4ef 683e f8bf cabc 8ad1 813d 7cba 7fbe
00000230: b059 e73d f07e c3bd 01a3 1ebe b844 f7bd
00000240: a7bd febd 0118 0a3e f0d6 fa3b 339a 233a
00000250: 103a aa3c bc75 83bd 3e97 523d 4bb5 b3bc
00000260: f383 87bc 7ff4 c33d 6e3b e63d 6e50 8d3c
00000270: eb59 5dbd 2cd2 48be 8daa 0b3e dfa7 613c
00000280: ea6b 6abc 8415 363e 8005 39bc 0e49 593c
00000290: a906 89be 1a4b 65bd e0b4 1a3e d446 5a3e
000002a0: 0127 8e3d 1302 cabd ccdc 57be 64a0 b4bd
000002b0: 69a7 5c3d 58df 003e aba4 d43d 1dd4 833d
000002c0: b19d 2c3e a802 0cbe 8328 d3bc cd4c 9a3c
000002d0: e729 783d 8f19 e93c ed4b 2a3e 9f8e 933d
000002e0: f7d1 8abe 53a6 27bd cf65 2cbd 4b33 3a3e
000002f0: 4096 ae3c 1369 36bd 6451 d7bd d9e5 6ebe
00000300: c03e 8d3d 50db 34bd 24dc bfbd bf85 86bd
00000310: 4955 913c d41b 53be 4330 91be 1ec3 87be
00000320: f1d0 28bd 7d06 613e 4101 343e 8415 e93d
00000330: 6368 5fbd 9280 963d a6f8 6e3d bf28 26be
00000340: 091a 08be 52c4 63bc 54fc adbd 7ee9 fabd
00000350: 5641 25bd e669 243c cd3f 873e 945a 1d3c
00000360: 544f a5bd 73dd ab3d bc24 163e 49ba 8abb
00000370: 26d7 0b3d e1f6 b1bd fda5 803d 6154 febd
00000380: 4ade db3d 905c c6bc cbc4 6c3e e1f7 193d
00000390: eeac 6c3c e1f2 023e 2c5b 243d 9834 1abe
000003a0: fed8 05bc 5cf7 33be 312d 533d d411 10bd
000003b0: 54ff 8d3d 0b44 62be 245a 57be 30d7 0c3d
000003c0: 6855 4c3e b634 8a3b aeb2 623d ef61 503e
000003d0: 0ee1 b8bd 392f 9fbd f366 4e3d 9dcb f13c
000003e0: c51b b9bd 66c0 90bd b1ea 96bc a04e 003e
000003f0: 381c 2fbd eb09 0cbe 1fc3 62be fce4 58be
0.18139124 0.19352643 0.14360932 0.19425213 -0.08350452 0.12407556 0.041129094 -0.014681762
0.0496414 0.330466 -0.054179695 -0.08055877 -0.13491218 0.31917432 0.3002163 0.10242155
-0.23893027 0.07855319 0.03365573 0.1227264 -0.08725559 -0.07383056 -0.14438137 -0.08580311
0.13706172 0.036317788 -0.19749545 -0.2007459 0.1870751 0.17318775 0.039472725 0.20508412
-0.14970326 -0.2561534 -0.09093048 0.077807814 -0.066865966 -0.013834026 -0.14808647 -0.02302347
-0.06163308 0.010902246 -0.11690447 -0.20693338 -0.028206477 -0.07564581 0.38041312 -0.25452736
-0.079908885 0.27278095 -0.18244423 0.011387687 -0.012303496 -0.06597203 -0.045545805 -0.028396968
0.14653817 0.18296814 -0.017784514 0.2810594 0.15707889 -0.2663392 -0.057413585 -0.11064984
0.39766368 0.087002434 -0.029372653 -0.13449101 0.047751643 0.3062401 -0.25494692 0.04944339
0.10590242 -0.03850262 -0.093734965 0.09483295 -0.06302887 0.1416111 0.13629232 -0.045396186
-0.006366603 -0.07717672 -0.09586905 -0.17860012 0.24760666 -0.106958024 -0.060787413 0.18143886
-0.11464254 0.11707869 0.057056364 0.27723065 0.0014578025 -0.34675977 -0.12610027 0.059953872
0.00812926 -0.14873156 -0.07847786 -0.06583571 0.07259813 -0.23144537 -0.0030794782 0.015357697
0.013603504 0.0023288883 -0.22585869 0.06681304 0.12769678 -0.11423934 -0.00020531629 -0.16204792
-0.07589525 -0.15394445 -0.10045651 -0.052337326 -0.12330317 0.13735686 0.20688026 -0.080610186
-0.046741348 0.05611682 0.2724799 0.05579638 -0.13136025 0.19764209 -0.010323832 0.1900432
0.043167677 -0.14971185 -0.09755912 -0.12250588 0.06644856 -0.09923527 -0.2265954 -0.20409048
0.2274769 -0.024749741 0.063387945 -0.24973482 0.112964034 -0.09545696 -0.15491869 -0.12073654
-0.12438517 0.1348572 0.007655017 0.0006240934 0.02077964 -0.064189404 0.051413767 -0.021937033
-0.01654241 0.09568118 0.11241804 0.017250266 -0.05404083 -0.19611424 0.13639279 0.013772934
-0.014307955 0.17781645 -0.011292815 0.0132620465 -0.26762894 -0.055979826 0.15108061 0.21316081
0.06941033 -0.09863677 -0.21080321 -0.088196546 0.053870592 0.12585199 0.103829704 0.06436942
0.1685703 -0.13672888 -0.025776153 0.01883545 0.060586836 0.02845457 0.16630526 0.07204937
-0.27113315 -0.040930104 -0.04208928 0.18183629 0.02131188 -0.0445338 -0.10513571 -0.23329867
0.06896734 -0.044154465 -0.0936816 -0.06568479 0.017740862 -0.20616084 -0.28357133 -0.2651605
-0.041214887 0.21975131 0.17578603 0.11381057 -0.05454291 0.073487416 0.0583426 -0.16226481
-0.13291182 -0.013901787 -0.084953934 -0.12251566 -0.040345512 0.010035014 0.26415864 0.009604115
-0.08071771 0.083918475 0.1466245 -0.0042336327 0.03414073 -0.086896665 0.0628166 -0.12418438
0.10735758 -0.02421406 0.23121946 0.03758991 0.0144455265 0.12787963 0.04012601 -0.15059125
-0.008169411 -0.17574829 0.05155677 -0.035173252 0.069334656 -0.22096269 -0.2103048 0.034384906
0.19954455 0.0042177094 0.055346183 0.20349859 -0.09027301 -0.07772679 0.05039115 0.029516036
-0.090385 -0.07067947 -0.018422456 0.12529993 -0.04275152 -0.13675658 -0.22144745 -0.211811

fc2.bias f4 [48]
00000000: 6b06 f93c 7d70 4f3d 3ed5 76bd da46 013e
00000010: ce5e cdbd b50f 64bd e498 c2bd 616e 553e
00000020: 64e4 513e 447e bdbd d610 02be 76b5 d03d
00000030: 2d5e 9fbd 6d93 fa3d 801b 2d3d 11c1 f7bc
00000040: a3c1 f73d 9a41 2abc a98e 60be d732 0fba
00000050: bf84 93bd e70c f23d f15d cb3d 5bcb 02bd
00000060: c678 7a3d 9e26 953e 9db6 443e 6e2d e0bc
00000070: 40e3 e9ba 1849 67bd 00c6 29be 4b11 3c3e
00000080: 2269 133e b171 05bd a5ca bd3d b6cd 80bd
00000090: 3626 9bbd 7864 af3c 7ea5 733d fc8a 353e
000000a0: 48f6 843c c118 1e3e 6777 a038 c8bf d13d
000000b0: 29de f13d b435 ae3e 0f7e c93b 332a c4bd
0.030398568 0.050644387 -0.060261957 0.12624684 -0.10027848 -0.055679042 -0.09501818 0.20842887
0.2049728 -0.09252599 -0.12701735 0.10190861 -0.077816345 0.122351505 0.042262554 -0.030243428
0.1209748 -0.010391617 -0.2192942 -0.0005462593 -0.07203054 0.11818867 0.09930027 -0.031932216
0.061150335 0.29131025 0.19210286 -0.027365413 -0.0017844215 -0.056466192 -0.16579437 0.18365972
0.14395574 -0.032579128 0.09267167 -0.06289236 -0.075756475 0.021410212 0.059483998 0.177288
0.016230717 0.1543913 7.651635e-05 0.102416575 0.11809952 0.34025347 0.0061490606 -0.09578361

fc3.weight f4 [24, 48]
00000000: a8ac afbe ea21 973e 4053 6bbd 3823 f5be
00000010: 43b5 313e 4838 e0bd af0a f3bd 7c5a f4bc
00000020: 0223 16bd 9983 0e3e b881 f43d aa05 193e
00000030: b40f 07be f6d0 1b3f 101d aabe e53c 4e3e
00000040: dd24 69bd ebd6 93bd 0c1d aebe 446f 6bbd
00000050: 602c d2bd 6add 37be ce92 3ebe 78ec 473e
00000060: 4eaa 283f 9355 253f 8178 4bbe a4ef cebd
00000070: a167 783d 9f7a 7fbe 2dda 11be 2bc8 79bd
00000080: 80bf f9be 1b17 2abd ed8c 703c b080 443d
00000090: da59 8dbe d03d e53e 90d0 2abe a760 8abe
000000a0: ab6b a7bb a2cf 183e 3461 40be 37c3 94be
000000b0: 6de6 7d3c 4c15 01be 7f16 1c3e 3f70 3dbe
000000c0: 5812 cabe 3377 bd3d 6481 803e f7c6 2abe
000000d0: 773f 4a3d c280 75be 5d38 22be cdde e3bd
000000e0: 1367 0d3f 6353 a4be c71f ac3d 375e a73d
000000f0: 62e6 f2bd 1170 23be a253 cd3e 5323 38bd
00000100: ca7e debb d073 8abe f3c1 a6be a49f 53be
00000110: 273d 87bd 2345 95be ac2e 5a3e 5b59 1bbc
00000120: d385 383c 0ac7 a4bd ef43 9bbe 5124 b63e
00000130: 5011 573e 0a67 f3bd 8a33 56be f03d 053f
00000140: 1379 f73e 0a12 1dbd d2b4 a4be 5fd7 4fbe
00000150: c800 1b3e 7541 9ebe f662 4dbe 75dd 763e
00000160: 6597 b9bc 2666 08be 377e a7bd 0997 c63e
00000170: d4cb 05be 49d3 0e3e b0b9 19be 9b06 6e3d
00000180: 377f b6be c1b4 8cbd 6f7d f93e 61a8 1fbe
00000190: 0958 f2bd 81c9 5b3d a503 e23e a972 4bbe
000001a0: 8557 0a3e d958 793d 55ac 21be 0bfb 76bd
000001b0: 1caf 2a3f c92d 14be be8d dfbd 55b1 2dbd
000001c0: bdab ecbe 2759 b6bd fd81 5a3d b7a9 c9bd
000001d0: 34bf a8be a610 d93e 1e28 93be a99f 8e3c
000001e0: a363 54bd d963 93be 02a3 52be 8f7c 30be
000001f0: fcfe 9b3d 7709 63be aca7 90be 5249 0a3e
00000200: cc88 26be 0526 46bd 34af 823e c1bd 68be
00000210: 79fc 803e 484e 873e e97a 2d3d d378 9ebe
00000220: 18bf 1ebc d7c4 653c 7ce0 a33d 8320 a4be
00000230: 4de5 1e3f db28 bebe 154c 30be 43a1 c3bc
00000240: 8e88 4d3e b0d9 73bb 96cb db3d 47e2 11be
00000250: 8640 19be c313 a83d 9225 19be ab77 46be
00000260: 03f7 dabd 72fa ac3e 67ef 1f3f 1fdb 1cbd
00000270: 1ecc b73e 111f fe3e a4f8 fdbe cc2c 4ebe
00000280: 6c72 f03d 166a fb3d 89bc 4f3f 3d3e 92be
00000290: 6379 9c3d a730 6bbe 66f8 8dbe c4eb 1f3e
000002a0: 8b49 9bbe 7901 05be 3da4 363d 3de3 943e
000002b0: 65d9 f23d 6fea 123d 888a 563e ad71 2e3d
000002c0: 7ad7 9c3e 37ae 8d3d 3888 0fbe e446 e5be
000002d0: 4030 3c3e 4119 d9be 287a 91bd 38d0 6ebd
000002e0: de1f a1bb 3576 603e ff26 a8be 2c0c 47bd
000002f0: 976c 90be 7e3c 443e 5df2 98be 7484 a3bd
00000300: 7c84 83be c33d 6b3e 4a1f de3e b45a b4be
00000310: daf6 e8bd 4278 c73e 7c05 b73d 8006 983e
00000320: 7a09 da3e e815 713d a6e2 f3bc 69d7 35be
00000330: c3e9 063e 8ea2 3d3f 95dd 993e 53e8 4bbe
00000340: 4396 873e f3ae 3dbc 8a97 93be 55af e7bd
00000350: 6c41 be3e 07a4 13be a351 833d adf0 c9bd
00000360: f776 8f3e 8d22 87be 8321 4fbe b753 093e
00000370: 5b12 a6bd fa75 38be 15cb 86be 220c 393e
00000380: a0bc 0dbe 6cf0 e43c 6585 97be 847a 9fbd
00000390: f273 af3e d9f4 bf3e 875b d8bc fb11 bfbd
000003a0: e681 dbbc 74af 14bd 4791 5abe bee0 e43d
000003b0: b1b9 f6bc 307c e1bd befa b53d 4110 58bd
000003c0: ed3e 94be d11e 21bd 00e5 0f3d 3b6f 693d
000003d0: 4c2a b73c ac94 0e3e 148d 26be 3711 663e
000003e0: d03e 033f 29a3 58bb 8182 41be 1b7d c7bc
000003f0: af1b 2d3e e536 0cbf 5481 a6bc 2706 98bd
-0.34311414 0.29518062 -0.05745244 -0.47878432 0.17354302 -0.10948235 -0.11867272 -0.029828303
-0.03665448 0.13917388 0.119388044 0.14943567 -0.13189584 0.60865724 -0.33225298 0.20140417
-0.05691992 -0.07218727 -0.34006536 -0.057479158 -0.1026237 -0.17955557 -0.18610689 0.195238
0.65884864 0.645837 -0.19870187 -0.101043016 0.060645703 -0.2494912 -0.14243384 -0.06098191
-0.48778915 -0.04152594 0.014682037 0.04797429 -0.27607614 0.44773722 -0.16681123 -0.27026865
-0.0051092706 0.14922956 -0.1878708 -0.29055187 0.015496832 -0.1260578 0.15242957 -0.1849985
-0.3946712 0.09251251 0.25098717 -0.16677462 0.04937693 -0.23974898 -0.15841813 -0.1112648
0.55235404 -0.3209487 0.084044985 0.08172267 -0.11860348 -0.15960719 0.4010287 -0.044955563
-0.006790017 -0.27041483 -0.32569847 -0.20666367 -0.06603461 -0.2915431 0.21306866 -0.009481753
0.011262375 -0.08045776 -0.30325267 0.35574582 0.21002698 -0.118848875 -0.20918098 0.52047634
0.4833456 -0.03834728 -0.32169205 -0.20297001 0.15137017 -0.30909315 -0.20057282 0.24107917
-0.022655198 -0.13320217 -0.081783704 0.38787106 -0.13066036 0.13947786 -0.1501224 0.05811177
-0.35643932 -0.068704136 0.4872851 -0.15591575 -0.118331976 0.053658966 0.44143406 -0.19867958
0.13509949 0.060875747 -0.15788396 -0.060298007 0.66673446 -0.1447059 -0.10915707 -0.042405445
-0.46224776 -0.08903723 0.053346623 -0.09846824 -0.32958376 0.42395514 -0.28741544 0.017410116
-0.051852833 -0.28787115 -0.20569995 -0.17235015 0.07616994 -0.2217158 -0.28252923 0.13504532
-0.16263121 -0.048376102 0.25524294 -0.22728635 0.2519262 0.2642691 0.042353544 -0.30951557
-0.009689115 0.014023981 0.08001801 -0.32056054 0.62068635 -0.37140545 -0.17216523 -0.023880607
0.20071623 -0.003720861 0.1073219 -0.14246474 -0.1496602 0.08206894 -0.14955738 -0.19381587
-0.10691645 0.33784825 0.62474674 -0.038294908 0.35897917 0.49633077 -0.4960376 -0.20134276
0.11740574 0.12276094 0.81147057 -0.2856311 0.0764034 -0.22967778 -0.27728575 0.15617281
-0.30329546 -0.12988843 0.044590224 0.2907962 0.11857871 0.035868105 0.20951283 0.04258888
0.30633146 0.069179945 -0.14016807 -0.44780648 0.18377781 -0.4240208 -0.071033776 -0.05830404
-0.004917129 0.21920092 -0.32842252 -0.048595592 -0.28207847 0.19163701 -0.29872409 -0.07984248
-0.25687015 0.22972779 0.43383247 -0.3522545 -0.11375208 0.38958937 0.08936593 0.2969246
0.42585355 0.058858782 -0.02977116 -0.17757954 0.1317511 0.74076164 0.30051866 -0.19912843
0.26481828 -0.011577356 -0.28826553 -0.11312739 0.37159288 -0.1441804 0.06412055 -0.098603584
0.2802045 -0.26393548 -0.20227627 0.13410841 -0.0810897 -0.18013754 -0.26326814 0.18071035
-0.13841486 0.027946673 -0.2959396 -0.0778704 0.34268147 0.3749149 -0.026410831 -0.093296014
-0.026795339 -0.036300138 -0.21344481 0.11175679 -0.030117841 -0.11010015 0.08885716 -0.052749876
-0.2895426 -0.03933603 0.0351305 0.056990843 0.022359036 0.13923901 -0.16264755 0.22467504
0.5126772 -0.0033056235 -0.1889744 -0.024351647 0.16905092 -0.5477126 -0.02032534 -0.074230485

fc3.bias f4 [24]
00000000: e450 bdbd 22f0 803e 0aed 80be 1086 08be
00000010: ade6 41be 27c6 903e e419 c43d 98f1 1f3e
00000020: 18e6 8b3e e26b dabd 1837 973e d1ff 03be
00000030: e120 733c 56f1 3dbe 1f5a 4e38 334f d6be
00000040: 24b8 b33d f875 5b3d 64ac 3c3e 6e45 b33d
00000050: 9a51 853d f991 923e 4c0a 55bd 168c c43d
-0.09243944 0.25183207 -0.25180846 -0.13332391 -0.18935652 0.28276178 0.09575251 0.15619504
0.27323985 -0.10665108 0.2953422 -0.12890555 0.014839382 -0.18549094 4.919816e-05 -0.418573
0.087753564 0.0535793 0.18425137 0.08753477 0.06509705 0.28626993 -0.052011773 0.09597032
